PPO_file/best_agent.pt (torch, 838690 bytes, 46 tensors)

log_std_parameter f4 [8]
-2.3362446 -1.9604615 -2.3131106 -2.156481 -2.1800492 -2.5468483 -2.0650017 -1.4468967
00000000: 0885 15c0 67f0 fabf 010a 14c0 c903 0ac0
00000010: ed85 0bc0 90ff 22c0 fd28 04c0 e933 b9bf

net.0.weight f4 [256, 36]
-0.08116319 -0.09040587 -0.028709386 0.564355 0.0045943875 0.09422734 -0.0014935206 0.17510942
0.16558468 -0.09603149 0.17470343 -0.029604217 0.13632451 0.03979546 0.11046969 -0.057972066
-0.027452447 -0.068981394 -0.3485668 0.32621026 -0.17103069 -0.047331728 -0.10615337 0.12956527
-0.0053986446 -0.07683506 -0.047062457 -0.10021208 0.023728406 -0.12741011 0.10321741 -0.14417286
0.13198039 -0.091106266 -0.009211628 0.058019627 0.14098589 0.16348992 0.13127117 -0.46539268
-0.0028842145 -0.25170702 0.03824537 -0.04271093 -0.07252995 -0.018821763 0.032520752 0.021375554
0.08342612 -0.04984138 0.009980249 0.024896968 -0.056609884 0.012186726 -0.1645156 0.6023255
-0.20184597 -0.071315475 0.10850194 -0.041440703 -0.38220233 -0.1137567 0.051392 -0.05739705
0.0426404 -0.003959927 0.1402615 -0.008582312 -0.016214302 -0.0036526478 0.02800495 0.07260866
0.03809761 -0.09742258 -0.24733037 0.01801809 -0.13459027 0.037600424 -0.07226344 -0.054761726
-0.21926618 -0.129299 0.03483789 -0.00244301 0.07970239 -0.05288346 0.049566384 -0.044093497
-0.0019673023 -0.050005257 -0.28222334 -0.04965309 -0.069062516 0.3501087 0.019602997 -0.22219767
0.09722079 -0.05623875 -0.059086066 -0.16126578 -0.09730787 0.05339741 0.1136795 -0.04233281
-0.0025360656 -0.059898525 -0.0040259627 0.068812706 -0.23792802 -0.102526836 0.26283583 0.22950467
-0.012292112 -0.20363909 -0.1817097 -0.32096693 -0.22110753 -0.074158825 -0.28257358 -0.18398929
-0.031260528 -0.0002522604 0.078074224 -0.12494911 -0.004189604 0.107094295 -0.1298115 -0.058823947
0.23964988 0.14901106 0.21214792 -0.22646457 -0.14783654 0.115339205 -0.04585747 -0.06388768
0.06703446 -0.07339081 0.110989414 0.019942693 0.08332389 0.07273398 -0.06890797 -0.15680574
-0.124294214 -0.27566257 0.00904897 0.44525272 0.02148141 -0.15471078 0.018729111 -0.32884976
-0.23499434 -0.2450723 -0.017268024 -0.1228643 -0.02620991 0.021712799 0.0816821 -0.055130385
0.064906724 0.016928744 -0.09386005 -0.015113317 -0.047955144 0.01958446 0.20230438 -0.0946512
-0.039088555 -0.09221274 -0.08435649 -0.007959287 0.14923325 -0.019784555 0.054644942 -0.047461953
-0.14350781 0.013917894 0.01622456 -0.19575332 -0.09658431 -0.06845036 -0.031659227 -0.22773023
0.12985852 0.10379111 0.025564268 0.11931983 0.0600038 0.06172015 0.06813205 0.008052651
0.122438416 0.06933315 0.0699907 -0.0127999475 -0.054362003 -0.00481576 0.2795552 0.3941257
0.028411053 -0.3691967 0.16828108 0.18575065 0.23522165 -0.1004843 -0.10196751 -0.14929448
0.0017621864 0.08284798 0.080911525 0.01160093 -0.10441085 -0.17169574 0.016801583 0.11393666
0.047849678 -0.23878586 0.011528756 -0.18761125 -0.068325914 -0.01952867 -0.070248745 -0.09296534
-0.21686247 0.20543912 0.10616908 0.17943606 -0.27687365 -0.20002836 -0.0048617627 0.14453678
0.062123142 0.09023523 0.15583163 0.4376023 -0.2570121 -0.00590506 -0.38723922 0.07956229
0.0037218414 -0.081828 -0.033542097 -0.095917545 0.020013712 0.027525991 -0.032070935 0.034512404
0.026888149 -0.030496946 -0.003206658 -0.13079578 -0.25903183 -0.073694035 -0.25857025 -0.49935284
00000000: e338 a6bd b626 b9bd f22f ebbc 9279 103f
00000010: 848c 963b 43fa c03d 3cc2 c3ba e24f 333e
00000020: 088f 293e 28ac c4bd 75e5 323e 8b84 f2bc
00000030: a798 0b3e 9000 233d ef3d e23d 1e74 6dbd
00000040: f4e3 e0bc 1e46 8dbd 5977 b2be 0805 a73e
00000050: ab22 2fbe eade 41bd f066 d9bd c2ac 043e
00000060: 1de7 b0bb b35b 9dbd 90c4 40bd fe3b cdbd
00000070: 1362 c23c cc77 02be a663 d33d 0da2 13be
00000080: de25 073e ec95 babd 5eec 16bc fda5 6d3d
00000090: 9b5e 103e e769 273e f36b 063e f347 eebe
000000a0: 1705 3dbb bedf 80be 2da7 1c3d a8f1 2ebd
000000b0: 958a 94bd 1930 9abc 7b34 053d c91b af3c
000000c0: 50db aa3d 7a26 4cbd 3384 233c baf4 cb3c
000000d0: c4df 67bd d5aa 473c c776 28be 0132 1a3f
000000e0: b6b0 4ebe d90d 92bd 4436 de3d babd 29bd
000000f0: 06b0 c3be 46f9 e8bd 6b80 523d 2b19 6bbd
00000100: b3a7 2e3d 46c2 81bb b6a0 0f3e d39c 0cbc
00000110: dbd3 84bc 4361 6fbb a36a e53c d9b3 943d
00000120: 3d0c 1c3d 7d85 c7bd 2c44 7dbe ac9a 933c
00000130: 08d2 09be e702 1a3d dbfe 93bd d54d 60bd
00000140: 5087 60be f566 04be 2db2 0e3d e81a 20bb
00000150: 023b a33d 549c 58bd 1f06 4b3d 629b 34bd
00000160: dbed 00bb 50d2 4cbd 947f 90be 0a61 4bbd
00000170: a670 8dbd 7341 b33e 7796 a03c c987 63be
00000180: b21b c73d 9b5a 66bd 3b04 72bd db22 25be
00000190: 5949 c7bd 3eb7 5a3d ccd0 e83d 2b65 2dbd
000001a0: 1f34 26bb 2858 75bd 39ec 83bb aded 8c3d
000001b0: 67a3 73be 97f9 d1bd 6b92 863e 4603 6b3e
000001c0: db64 49bc c486 50be 1c12 3abe c755 a4be
000001d0: 036a 62be 95e0 97bd 7cad 90be b067 3cbe
000001e0: 0a0b 00bd d141 84b9 61e5 9f3d 52e5 ffbd
000001f0: f248 89bb 4154 db3d 4eed 04be 61f1 70bd
00000200: c766 753e 5b96 183e 4e3d 593e 54e6 67be
00000210: 7662 17be f636 ec3d 0bd5 3bbd 8bd7 82bd
00000220: 5d49 893d ec4d 96bd 6b4e e33d dc5e a33c
00000230: b7a5 aa3d 8ef5 943d 9f1f 8dbd af91 20be
00000240: f78d febd a523 8dbe 2242 143c 2af8 e33e
00000250: c8f9 af3c 816c 1ebe cb6d 993c ff5e a8be
00000260: 5ba2 70be 3cf4 7abe ac75 8dbc 47a0 fbbd
00000270: 2ab6 d6bc 0adf b13c f248 a73d 66d0 61bd
00000280: d1ed 843d 26ae 8a3c b339 c0bd d99d 77bc
00000290: 9d6c 44bd 976f a03c e128 4f3e 7dd8 c1bd
000002a0: 521b 20bd 08da bcbd 18c3 acbd ab67 02bc
000002b0: 9ad0 183e 3813 a2bc 60d3 5f3d 7767 42bd
000002c0: b6f3 12be e107 643c 5ee9 843c 8f73 48be
000002d0: ffcd c5bd b42f 8cbd 1bad 01bd 1d32 69be
000002e0: a2f9 043e 6f90 d43d 286c d13c f45d f43d
000002f0: 8bc6 753d 45ce 7c3d d188 8b3d 44ef 033c
00000300: fec0 fa3d 8afe 8d3d 4957 8f3d dfb6 51bc
00000310: b1aa 5ebd 86cd 9dbb dc21 8f3e d8ca c93e
00000320: 4cbe e83c 5a07 bdbe e051 2c3e 6b35 3e3e
00000330: f2dd 703e b6ca cdbd 58d4 d0bd a7e0 18be
00000340: 2af9 e63a 34ac a93d f1b4 a53d d411 3e3c
00000350: 5bd5 d5bd 02d1 2fbe 79a3 893c a057 e93d
00000360: 06fe 433d 4884 74be 1be3 3c3c 2a1d 40be
00000370: 75ee 8bbd 97fa 9fbc 93de 8fbd 9d64 bebd
00000380: 3211 5ebe a25e 523e 2d6f d93d 16be 373e
00000390: 62c2 8dbe 3cd4 4cbe 6c4f 9fbb 7301 143e
000003a0: d674 7e3d 40cd b83d 5492 1f3e 690d e03e
000003b0: 1797 83be 3c7f c1bb 3844 c6be 8ef1 a23d
000003c0: 23ea 733b 7095 a7bd 7063 09bd 6b70 c4bd
000003d0: ccf3 a33c 307e e13c d05c 03bd e15c 0d3d
000003e0: 8944 dc3c bbd4 f9bc cb26 52bb 54ef 05be
000003f0: d29f 84be e6ec 96bd 5263 84be 2dab ffbe

net.0.bias f4 [256]
0.23273416 -0.63803303 -0.1425299 -0.039474618 -0.04631946 0.45292762 0.084560215 -0.5568624
0.15359916 -0.2658584 0.048161354 0.030210251 -0.0800895 -0.2735633 -0.2120953 -0.043971505
-0.8288317 -0.15659423 -0.17673664 0.15313123 -0.12305818 -0.15201578 0.21836595 -0.10980962
-0.22325419 0.23726946 0.3307435 -0.50900966 -0.2478314 -0.09223682 0.37778315 0.20188792
0.21667151 -0.10518975 0.10727323 -0.20493819 -0.0060761003 0.16399509 -0.34828272 0.041657574
-0.16813189 -0.33701324 0.059108682 -0.2439493 0.14807706 -0.41599762 0.07391373 0.05749773
-0.090537585 -0.30268207 -0.25104457 -0.24306361 -0.19743776 -0.29336315 0.078327864 -0.17611137
-0.1862551 0.17357665 -0.15618658 -0.33006755 -0.3442005 0.06283045 0.16410139 -0.34225532
-0.36930948 -0.1553059 -0.33585685 -0.050015748 0.121001706 -0.08317327 0.18786724 0.00214303
-0.09454335 -0.30222574 0.30293757 0.39404717 0.110690184 -0.18207057 0.20338745 0.22873479
-0.0055423267 0.04526542 -0.08229042 0.0024743068 0.041582316 -0.4956153 0.06264773 0.13645683
-0.020743806 0.15970613 0.031640448 0.048275687 -0.3589536 0.023150964 -0.611307 -0.24395122
-0.24294417 -0.37707627 -0.115142465 0.2802896 -0.29573628 0.29025808 -0.10889872 0.436894
0.17255071 0.29891768 0.12939888 -0.34119233 0.07769103 -0.68340915 -0.26480415 -0.06875602
-0.21789019 0.15980658 0.13320412 -0.45820716 0.33662674 0.25987688 0.3781852 -0.46580467
0.14311245 0.1651108 -0.037878912 -0.2953611 0.4748653 -0.024001263 -0.102623604 0.2511147
0.2505004 0.091027774 0.18335384 0.20970148 -0.04901702 -0.12856613 0.40229088 -0.13443995
-0.607668 -0.037912235 -0.5733705 -0.23627716 -0.05048415 0.5306368 0.05072413 0.10041504
-0.14196171 0.4047928 0.18452474 -0.24416092 -0.012481692 -0.68215305 -0.045765337 0.32604545
-0.3985916 -0.21127768 0.1457253 -0.11398891 0.18176562 0.26296112 -0.14111657 -0.31145155
-0.08106821 -0.025656272 0.3191484 -0.02256861 0.013341566 -0.23512055 -0.11777801 -0.015835773
-0.42425978 0.08335813 -0.37476516 0.20240544 0.24491091 -0.24581689 -0.59875536 -0.17256387
-0.06303825 -0.095992744 0.32955098 0.14370456 -0.13393717 -0.20756893 -0.04941759 -0.14566602
0.25604394 -0.050858635 0.34072715 -0.10264467 0.04276841 -0.13929902 -0.0522365 0.007961832
-0.17836909 0.21251246 -0.28801534 -0.27942047 0.35855672 -0.16076541 -0.33234996 -0.35039565
0.077811696 -0.35043547 -0.6912779 -0.035984248 -0.12843348 0.1627992 -0.42465094 0.10488802
0.24184632 0.28227028 0.059182726 -0.26415253 -0.26169863 -0.33856893 -0.26640585 -0.14052072
-0.065162934 0.15101594 0.15572181 -0.1401786 -0.17675667 0.30662975 0.2698326 -0.06138281
0.032939117 0.02305608 -0.4817451 -0.44289383 -0.16990128 -0.1995949 -0.14417167 -0.17038807
-0.15558231 0.25036988 -0.48370773 0.30636013 -0.29910028 -0.12241067 -0.5612852 -0.18241675
-0.22632155 -0.05126845 0.23470758 0.3582526 0.3316069 -0.3335552 -0.3813409 -0.28911245
-0.20015074 -0.39849415 0.06802641 -0.35865065 -0.45179608 0.32210863 0.14579844 0.13384046
00000000: dd51 6e3e 2256 23bf 5cf3 11be 23b0 21bd
00000010: 79b9 3dbd 21e6 e73e e82d ad3d 898e 0ebf
00000020: 1949 1d3e 981e 88be d744 453d 7d7b f73c
00000030: f705 a4bd 7d10 8cbe 832f 59be 771b 34bd
00000040: 502e 54bf 3d5a 20be 73fa 34be 6fce 1c3e
00000050: ed05 fcbd 06aa 1bbe 539b 5f3e dee3 e0bd
00000060: bf9c 64be c4f6 723e 3657 a93e 754e 02bf
00000070: 84c7 7dbe a8e6 bcbd cb6c c13e b5bb 4e3e
00000080: 23df 5d3e b96d d7bd 11b2 db3d 51db 51be
00000090: 061a c7bb 54ee 273e 1d52 b2be 22a1 2a3d
000000a0: c42a 2cbe 008d acbe f21b 723d d8cd 79be
000000b0: 83a1 173e a4fd d4be 1560 973d bd82 6b3d
000000c0: c56b b9bd 25f9 9abe ea88 80be abe5 78be
000000d0: 202d 4abe b233 96be 5c6a a03d 8a56 34be
000000e0: a8b9 3ebe 14be 313e 60ef 1fbe 9dfe a8be
000000f0: 0c3b b0be 40ad 803d 320a 283e 173c afbe
00000100: 2216 bdbe 8308 1fbe 6ef5 abbe 50dd 4cbd
00000110: becf f73d bf56 aabd 4560 403e 1472 0c3b
00000120: f29f c1bd 55bd 9abe a21a 9b3e 8dc0 c93e
00000130: 89b1 e23d b570 3abe cd44 503e 7439 6a3e
00000140: 689c b5bb 3c68 393d e187 a8bd fb27 223b
00000150: 3852 2a3d 4ac1 fdbe 744d 803d 57bb 0b3e
00000160: eaee a9bc 018a 233e 6a99 013d babc 453d
00000170: c4c8 b7be 17a7 bd3c 9e7e 1cbf 59ce 79be
00000180: 5bc6 78be 2410 c1be d0cf ebbd 1e82 8f3e
00000190: bf6a 97be b59c 943e 4b06 dfbd 92b0 df3e
000001a0: 22b1 303e bd0b 993e 2481 043e c3b0 aebe
000001b0: 7a1c 9f3d e7f3 2ebf 6994 87be f5cf 8cbd
000001c0: 9b1e 5fbe 56a4 233e a966 083e 219a eabe
000001d0: 575a ac3e 950e 853e 7ea1 c13e f37d eebe
000001e0: 128c 123e ce12 293e eb26 1bbd 9239 97be
000001f0: 8b21 f33e 4c9e c4bc 532c d2bd 1b92 803e
00000200: 9741 803e c56c ba3d 1cc1 3b3e fcbb 563e
00000210: 12c6 48bd d7a6 03be 12f9 cd3e a0aa 09be
00000220: 2190 1bbf dc49 1bbd 69c8 12bf a4f2 71be
00000230: 78c8 4ebd d0d7 073f 1bc4 4f3d 67a6 cd3d
00000240: 695e 11be 0041 cf3e 0ef4 3c3e 5205 7abe
00000250: 0380 4cbc 95a1 2ebf 6f74 3bbd 6eef a63e
00000260: 3314 ccbe 2d59 58be 0339 153e 0573 e9bd
00000270: c420 3a3e d7a2 863e dd80 10be 9476 9fbe
00000280: 1707 a6bd 1a2d d2bc 6b67 a33e cee1 b8bc
00000290: 9596 5a3c 71c3 70be 9935 f1bd 06ba 81bc
000002a0: 9438 d9be abb7 aa3d 38e1 bfbe 5f43 4f3e
000002b0: edc9 7a3e 6cb7 7bbe 0848 19bf 95b4 30be
000002c0: 331a 81bd d897 c4bd e8ba a83e 4a27 133e
000002d0: d326 09be f38c 54be 196a 4abd 7929 15be
000002e0: 3118 833e 2551 50bd ca73 ae3e 5e37 d2bd
000002f0: ee2d 2f3d 67a4 0ebe f1f5 55bd 5872 023c
00000300: 63a6 36be de9c 593e bf76 93be 3310 8fbe
00000310: bf94 b73e b09f 24be c629 aabe 0f67 b3be
00000320: bd5b 9f3d 476c b3be 97f7 30bf 3864 13bd
00000330: 1184 03be d5b4 263e d96b d9be 88cf d63d
00000340: 90a6 773e bb85 903e 9669 723d 003f 87be
00000350: 5dfd 85be e858 adbe 5966 88be aae4 0fbe
00000360: 2574 85bd eca3 1a3e 8a75 1f3e fb8a 0fbe
00000370: b3ff 34be 93fe 9c3e 8027 8a3e 8b6c 7bbd
00000380: 2beb 063d 1be0 bc3c 4ba7 f6be fbc2 e2be
00000390: 9afa 2dbe 9b62 4cbe bda1 13be 367a 2ebe
000003a0: f850 1fbe 7b30 803e 8aa8 f7be 3cdb 9c3e
000003b0: ac23 99be 72b2 fabd 63b0 0fbf 75cb 3abe
000003c0: d6c0 67be defe 51bd 2f57 703e e36c b73e
000003d0: 61c8 a93e bfc7 aabe 1d3f c3be 8c06 94be
000003e0: 51f4 4cbe 6d07 ccbe 6e51 8b3d 0fa1 b7be
000003f0: d151 e7be 6ceb a43e 304c 153e 790d 093e

net.2.weight f4 [128, 256]
-0.09742767 -0.0066480637 -0.0066415477 0.11759495 0.20781411 0.01645813 -0.10573445 -0.037788514
0.041610435 -0.12694085 0.030887209 0.108415805 -0.07280305 -0.09826516 -0.11848461 0.044833243
-0.058988344 -0.13684212 0.19950719 -0.061369188 0.024080899 -0.037626777 -0.07191011 -0.113102265
-0.13743277 -0.3413756 0.026513403 -0.015834158 -0.020972 -0.015200081 -0.09736556 -0.18515043
0.054430097 0.16801739 -0.053560905 0.0940477 -0.037276346 0.024179587 -0.13775595 0.16292211
0.13764754 -0.062147815 -0.29745886 0.10708789 -0.021597534 0.10343324 -0.16119528 -0.00967317
0.11947341 -0.12963651 -0.025179187 0.031368744 -0.08600305 0.07727646 0.16545983 0.06363754
0.0752762 0.18612638 0.072269976 -0.24453185 -0.052891348 0.008769967 -0.094527364 -0.14923228
0.02990878 -0.033374023 0.0033679714 0.0028353238 0.11607301 -0.055465277 0.033603784 -0.11757027
-0.16093828 -0.1535182 -0.1582503 0.08424704 -0.1414191 0.049448743 -0.011548852 -0.020305684
0.032346524 0.057938445 -0.22170167 -0.0062679015 0.16076182 -0.032461666 -0.09726631 0.053861298
-0.13937527 -0.19283664 0.106006965 0.07950751 -0.031136004 0.14255434 -0.09286543 -0.3608745
-0.07604015 -0.038988877 0.16675106 -0.09189944 -0.1846249 -0.14827307 0.025724357 -0.022115882
0.015851058 0.03342902 0.14660195 -0.007390552 -0.011235096 -0.10114735 0.072515234 0.054538157
-0.27539703 -0.064477935 -0.30946502 -0.08573378 -0.08707458 0.0031309729 -0.15746479 -0.2450112
0.016018806 -0.11435868 0.08776035 0.18923776 0.03338131 -0.051177867 -0.097199515 -0.120036624
0.056851435 0.043708168 -0.0034361847 0.008248635 -0.350996 -0.10653623 0.102517 -0.019026695
-0.12001602 0.07476725 -0.07276007 -0.13043691 -0.068388164 -0.13508096 0.05535676 0.1604504
-0.1096779 0.0644642 -0.03256065 0.08763033 0.11142552 0.14770101 0.0108539825 -0.02140207
-0.09048426 -0.11740209 -0.17299126 0.10669871 0.021377847 -0.045618556 -0.004139004 -0.015620238
-0.13944918 0.12715913 -0.19191334 -0.15997568 0.11162573 -0.1127135 -0.35236 -0.09159583
-0.048744842 0.16454059 -0.01922698 -0.2018022 -0.042442083 0.12477755 -0.014133007 -0.21313694
-0.15592803 0.027309218 -0.05839778 0.037364032 0.23939271 -0.09127761 0.040064346 0.007525307
-0.08702569 -0.07571961 0.049901027 -0.064747415 -0.098720565 -0.051986676 -0.12471747 0.17773937
-0.07112966 0.18373522 -0.013811607 -0.004644701 0.08946989 0.0649356 0.005546359 -0.07323467
0.052676134 -0.014722879 0.04524975 -0.21107799 -0.16578917 -0.0678062 -0.13091582 0.023270456
0.24531886 -0.11090732 -0.16772823 0.0018580074 -0.021341493 -0.19108221 -0.061990894 0.010290735
-0.049063046 0.088879265 0.05453777 -0.21797171 -0.02948852 0.10620344 -0.27714756 0.24248426
0.009677467 -0.035295248 0.3880464 -0.17042522 -0.056668244 0.046167076 0.05112477 -0.08065166
-0.04851209 -0.076433495 -0.024578432 0.21956664 -0.20107517 0.010673989 -0.0697591 0.09874237
-0.09612057 0.06980859 -0.217554 -0.056090582 0.12397633 0.21123458 0.015346931 0.16496521
0.032245234 -0.12181286 0.108816795 0.016464915 0.0027803662 -0.17625903 0.07572743 0.017915135
00000000: 2988 c7bd 00d8 d9bb 57a1 d9bb 9fd5 f03d
00000010: 39cd 543e 33d3 863c 4e8b d8bd 21c8 1abd
00000020: b46f 2a3d c8fc 01be 2c07 fd3c 1b09 de3d
00000030: c419 95bd 3f3f c9bd 0fa8 f2bd 10a3 373d
00000040: c39d 71bd 5720 0cbe 9d4b 4c3e 425e 7bbd
00000050: 4e45 c53c 891e 1abd 9c45 93bd 29a2 e7bd
00000060: 2dbb 0cbe c8c8 aebe a332 d93c a3b6 81bc
00000070: 79cd abbc c309 79bc 9867 c7bd 1398 3dbe
00000080: 18f2 5e3d c00c 2c3e ae62 5bbd 159c c03d
00000090: 15af 18bd 4514 c63c e50f 0dbe 0ed5 263e
000000a0: 7af3 0c3e b58e 7ebd 874c 98be e550 db3d
000000b0: 50ed b0bc ced4 d33d 6010 25be 377c 1ebc
000000c0: 7aae f43d 6fbf 04be 9544 cebc 837c 003d
000000d0: 5e22 b0bd 1f43 9e3d 4d6e 293e 6654 823d
000000e0: 692a 9a3d ea97 3e3e 4802 943d 8f66 7abe
000000f0: 99a4 58bd e8af 0f3c 9097 c1bd 59d0 18be
00000100: 4203 f53c 33b3 08bd 2fb9 5c3b d7d0 393b
00000110: b0b7 ed3d 8f2f 63bd 1fa4 093d afc8 f0bd
00000120: 01cd 24be e033 1dbe 5e0c 22be b689 ac3d
00000130: 2bd0 10be c48a 4a3d 6537 3dbc 1b58 a6bc
00000140: ca7d 043d dd50 6d3d c305 63be f862 cdbb
00000150: bf9e 243e 86f6 04bd 8f33 c7bd aa9d 5c3d
00000160: 64b8 0ebe f876 45be 2e1a d93d d5d4 a23d
00000170: ef10 ffbc c4f9 113e 3b30 bebd 8bc4 b8be
00000180: f0ba 9bbd cdb2 1fbd cac0 2a3e c635 bcbd
00000190: 4f0e 3dbe e5d4 17be e3bb d23c 5e2c b5bc
000001a0: 14da 813c deec 083d d21e 163e 722c f2bb
000001b0: 6813 38bc 5826 cfbd de82 943d 6763 5f3d
000001c0: d700 8dbe 020d 84bd 3372 9ebe 3195 afbd
000001d0: 2854 b2bd 0231 4d3b 733e 21be 37e4 7abe
000001e0: df39 833c e234 eabd b3bb b33d 8bc7 413e
000001f0: d7ba 083d e29f 51bd 8a10 c7bd c3d5 f5bd
00000200: 0ddd 683d 5607 333d 9d31 61bb 4825 073c
00000210: bfb5 b3be ab2f dabd 6ff4 d13d dfdd 9bbc
00000220: f6ca f5bd 921f 993d 3b03 95bd 4191 05be
00000230: 180f 8cbd aa52 0abe c5bd 623d 1c4d 243e
00000240: cf9e e0bd ce05 843d 515e 05bd 8877 b33d
00000250: 1033 e43d ef3e 173e e7d4 313c 6553 afbc
00000260: d04f b9bd 8270 f0bd 9f24 31be da84 da3d
00000270: 9820 af3c 86da 3abd 7ba0 87bb 07ec 7fbc
00000280: c4cb 0ebe 0136 023e ee84 44be aad0 23be
00000290: 089c e43d 56d6 e6bd 8868 b4be 9896 bbbd
000002a0: aca8 47bd 547d 283e e681 9dbc 3ca5 4ebe
000002b0: c0d7 2dbd 5f8b ff3d 218e 67bc 9240 5abe
000002c0: 99ab 1fbe 95b7 df3c 8332 6fbd 070b 193d
000002d0: 5d23 753e c1ef babd 831a 243d da96 f63b
000002e0: 863a b2bd e212 9bbd 0565 4c3d 4b9a 84bd
000002f0: 022e cabd fbef 54bd df6b ffbd 4f01 363e
00000300: 6dac 91bd 1625 3c3e 144a 62bc 9332 98bb
00000310: fd3b b73d f5fc 843d 3bbe b53b 0ffc 95bd
00000320: eec2 573d 3b38 71bc cd57 393d d424 58be
00000330: a3c4 29be fadd 8abd cc0e 06be afa1 be3c
00000340: de34 7b3e 6123 e3bd f3c0 2bbe 6288 f33a
00000350: 5bd4 aebc 0eab 43be 2aea 7dbd 799a 283c
00000360: 55f6 48bd 5506 b63d ff62 5f3d fa33 5fbe
00000370: e991 f1bc 3081 d93d 49e6 8dbe cb4d 783e
00000380: 3d8e 1e3c c091 10bd 05ae c63e f383 2ebe
00000390: f61c 68bd b019 3d3d 3568 513d b32c a5bd
000003a0: 9db4 46bd 2a89 9cbd b558 c9bc 14d6 603e
000003b0: a6e6 4dbe f4e1 2e3c dcdd 8ebd 7139 ca3d
000003c0: ddda c4bd cef7 8e3d 7ac6 5ebe 3dbf 65bd
000003d0: 4de7 fd3d e14d 583e b271 7b3c a4ec 283e
000003e0: 9413 043d 0579 f9bd 57db de3d 6ee1 863c
000003f0: ce36 363b 3f7d 34be fc16 9b3d c3c2 923c

net.2.bias f4 [128]
-0.033788703 -0.010702972 0.048866395 -0.09313718 -0.005679203 -0.10385086 -0.07474392 0.14065444
-0.1474319 -0.058694433 0.023391573 -0.27434275 -0.04718932 0.03756044 -0.10284459 0.026306015
-0.1435322 -0.20219254 -0.093446985 -0.1785577 -0.14004411 -0.18498361 -0.11564897 -0.3435463
-0.06649049 -0.30101407 -0.1290727 -0.15712588 -0.19108543 -0.017977653 -0.13204394 -0.067877814
-0.24774097 0.15025958 0.016338015 -0.25050074 -0.1180391 -0.45708713 -0.24339819 -0.18378213
-0.20527817 -0.01672302 -0.13937125 -0.20191911 -0.18331847 -0.120861106 0.09688863 0.10105724
-0.19207999 -0.112919845 -0.02262728 -0.19050224 -0.2284862 -0.0654198 -0.28751686 -0.32851315
-0.042739253 0.05098427 -0.05660582 -0.21003136 0.046649758 0.11656711 0.08077514 -0.27777356
0.15144548 0.02818284 -0.27165022 -0.039964624 -0.16408856 -0.04199991 -0.06915578 0.07204242
-0.28952485 -0.10088837 -0.047545683 -0.34269613 -0.19208951 -0.086822666 -0.067351855 -0.09349052
-0.04520189 -0.14224795 -0.10377286 -0.15260433 -0.14335051 -0.07391371 0.07399711 0.022295315
-0.13630001 -0.18505764 -0.5059099 -0.15223877 -0.25882873 -0.05200861 -0.12235397 0.01691173
-0.23972595 0.035077002 -0.055230234 -0.22501528 0.09510127 0.025965182 -0.22048868 -0.23360747
-0.15347517 -0.11755045 -0.21352233 -0.043720324 -0.13123135 -0.25463757 0.07511948 -0.056790814
-0.20667505 -0.23288219 -0.1614422 -0.15322608 -0.16177267 -0.15910546 -0.1354088 -0.01881074
-0.110348284 -0.35593858 -0.15278009 0.1932293 -0.40782055 -0.13813527 -0.046687353 -0.39477363
00000000: 0666 0abd 855b 2fbc 2128 483d b5be bebd
00000010: 9c18 babb c2af d4bd 5713 99bd b807 103e
00000020: 63f8 16be 9369 70bd af9f bf3c a776 8cbe
00000030: 9749 41bd fad8 193d 2fa0 d2bd b67f d73c
00000040: 1bfa 12be 900b 4fbe 2261 bfbd d4d7 36be
00000050: b967 0fbe 586c 3dbe 5ed9 ecbd 4de5 afbe
00000060: 2b2c 88bd 841e 9abe a22b 04be 9be5 20be
00000070: e6ab 43be df45 93bc 8736 07be 8603 8bbd
00000080: cfaf 7dbe a6dd 193e 4dd7 853c a241 80be
00000090: 7cbe f1bd 5307 eabe 603d 79be 6231 3cbe
000000a0: 7134 52be b7fe 88bc 56b7 0ebe e2c3 4ebe
000000b0: d6b7 3bbe 0786 f7bd 8c6d c63d 19f7 ce3d
000000c0: 9eb0 44be 8542 e7bd d85c b9bc 0513 43be
000000d0: 49f8 69be d1fa 85bd 6935 93be e032 a8be
000000e0: 5b0f 2fbd e2d4 503d 81db 67bd 7612 57be
000000f0: d113 3f3d bdba ee3d 706d a53d 5638 8ebe
00000100: 8614 1b3e b3df e63c bd15 8bbe f2b1 23bd
00000110: d506 28be 1908 2cbd 8ca1 8dbd fa8a 933d
00000120: 9a3c 94be 909e cebd 43bf 42bd de75 afbe
00000130: 1db3 44be 15d0 b1bd c5ef 89bd f577 bfbd
00000140: 9e25 39bd 72a9 11be dd86 d4bd 4f44 1cbe
00000150: 7aca 12be 1260 97bd cc8b 973d aaa4 b63c
00000160: 3b92 0bbe c07f 3dbe 5083 01bf 7be4 1bbe
00000170: 3385 84be fb06 55bd b894 fabd 788a 8a3c
00000180: b87a 75be e7ac 0f3d 1939 62bd 686a 66be
00000190: 74c4 c23d efb4 d43c c9c7 61be cc36 6fbe
000001a0: 9828 1dbe 4abe f0bd 99a5 5abe 1514 33bd
000001b0: 8361 06be db5f 82be 3ed8 993d 7c9d 68bd
000001c0: a0a2 53be ab78 6ebe 1b51 25be 4ce7 1cbe
000001d0: bca7 25be 8bec 22be 9ba8 0abe fb18 9abc
000001e0: 48fe e1bd 953d b6be 6272 1cbe e7dd 453e
000001f0: dbcd d0be 5573 0dbe 3d3b 3fbd c51f cabe

net.4.weight f4 [64, 128]
-0.022579182 -0.09120942 -0.06412717 -0.0945253 -0.17937227 -0.03102842 0.1123409 0.028204735
-0.047257725 -0.12067621 0.049087074 0.10883025 -0.032239523 -0.16376026 -0.017120583 -0.006399459
-0.045303706 -0.23793297 -0.044019766 0.03712313 -0.18038473 0.029007295 0.06256457 0.118914045
0.034168813 -0.27512428 0.124190226 -0.26066837 -0.013408478 -0.061623193 0.054722317 0.042099476
-0.051073354 -0.006095905 -0.02221459 -0.10542886 0.1471456 0.060927577 0.06390888 -0.11431301
0.07466011 0.09844426 0.045279797 0.19619527 -0.04164339 -0.051944528 0.13137336 0.05970712
-0.028842114 -0.19718069 -0.059108857 0.071345665 -0.096677765 0.15355554 0.015129092 0.026680987
0.007021154 0.0051298165 -0.22976466 -0.057940044 -0.1473898 -0.09990547 0.02984346 0.027827414
0.04662077 -0.054682836 -0.021290328 0.20383182 0.1535455 0.05461981 -0.054114077 -0.19755629
0.044639062 -0.28047174 -0.0734202 -0.05430196 0.17242967 -0.09472821 0.05475558 0.10664839
-0.0018079833 -0.034001004 -0.05656572 0.06830373 -0.10501407 -0.025245186 -0.051056057 -0.03172804
-0.011982476 0.07099255 0.05027539 -0.06810535 0.008976938 -0.22999041 -0.019802796 -0.090757445
0.046407193 -0.01432609 0.01628599 0.047095377 0.058517873 0.12799759 0.19696568 0.11781955
0.04701904 -0.0769406 -0.08446657 0.0026452194 -0.20422587 -0.0745608 -0.09795637 0.013608603
0.1268059 0.03887658 0.13798086 -0.27295348 0.24843806 0.027831554 -0.019497411 -0.18326718
-0.016091993 -0.10846377 0.019078285 -0.25130883 0.03599307 -0.020814296 -0.0092737805 -0.048472263
-0.054812536 -0.043592982 0.0056766 -0.114243574 0.12723108 -0.040774923 -0.03134153 -0.093846396
0.009668727 -0.072956145 -0.04984082 0.1512007 -0.017689051 -0.2173608 -0.023151115 0.0759678
-0.0944656 -0.11221201 -0.24042507 0.050339233 -0.0013867242 0.052254904 0.048187234 -0.0031902355
-0.02651464 0.0046170284 0.030501576 0.047370706 -0.20530555 0.05561053 0.013054002 0.098823376
0.05757174 -0.012834149 -0.056507334 -0.087709226 -0.0010689247 -0.039004974 -0.030828346 -0.00589819
-0.22352973 0.0031219823 0.05275274 -0.042723432 -0.14488263 -0.15384845 0.1224189 -0.02299755
-0.028667577 -0.151101 -0.06436043 -0.20517464 0.04865367 -0.14193174 0.16637132 -0.0057504363
0.052900113 -0.12284712 -0.1480054 0.0076598767 -0.13681832 -0.033167273 0.017943261 0.063336916
-0.008439091 -0.0049320427 -0.06494297 -0.081282414 -0.04335495 -0.09050274 -0.31933329 -0.1528852
0.1270309 0.025405815 -0.03002355 -0.122548215 0.083442755 0.10891956 -0.17173907 0.09955735
-0.04664732 -0.026061874 0.018152831 -0.02077415 -0.071295284 -0.0024132575 -0.07233357 -0.022539796
-0.027933061 -0.0008172949 0.09284733 0.082771845 -0.047273904 -0.099843346 -0.0919618 0.04639633
0.11816137 0.01194099 0.0037314934 -0.002350238 -0.113165915 0.031213867 0.10839932 0.12561369
0.10118905 -0.0076696933 -0.012239813 0.18922679 0.16247478 0.076377526 -0.15880136 0.024558272
0.19250391 0.1270146 0.13484831 -0.074855335 0.16283095 0.041395456 -0.0008335334 -0.117438614
-0.014375732 -0.13669717 -0.0015510937 -0.09253437 0.016973572 -0.04414573 -0.009755289 0.0011363552
00000000: faf7 b8bc 01cc babd 1b55 83bd 7b96 c1bd
00000010: 5dad 37be 502f febc fc12 e63d 9e0d e73c
00000020: 5191 41bd 1725 f7bd 870f 493d 65e2 de3d
00000030: 970d 04bd c5b0 27be 7740 8cbc 8eb2 d1bb
00000040: 6190 39bd b3a4 73be 124e 34bd 6c0e 183d
00000050: c6b6 38be b5a0 ed3c da21 803d 3589 f33d
00000060: 99f4 0b3d 17dd 8cbe 7257 fe3d 5376 85be
00000070: 3caf 5bbc 9a68 7cbd 8224 603d 8070 2c3d
00000080: 4b32 51bd 28c0 c7bb 5ffb b5bc 16eb d7bd
00000090: 56ad 163e 328f 793d a9e2 823d f01c eabd
000000a0: 66e7 983d 259d c93d 4f77 393d 6ae7 483e
000000b0: 4292 2abd c9c3 54bd bd86 063e 748f 743d
000000c0: 4c46 ecbc bce9 49be 211c 72bd ad1d 923d
000000d0: fefe c5bd aa3d 1d3e 03e0 773c 1692 da3c
000000e0: b511 e63b 0518 a83b 6d47 6bbe 8a52 6dbd
000000f0: 5aed 16be 3d9b ccbd 467a f43c 51f6 e33c
00000100: 6cf5 3e3d 1cfb 5fbd 0e69 aebc 4ab9 503e
00000110: 083b 1d3e 06b9 5f3d b9a6 5dbd 324c 4abe
00000120: 73d7 363d fe99 8fbe 545d 96bd bb6b 5ebd
00000130: 6791 303e dd00 c2bd 6347 603d 796a da3d
00000140: daf9 ecba a344 0bbd 75b1 67bd d3e2 8b3d
00000150: 9e11 d7bd fece cebc 2820 51bd 43f5 01bd
00000160: 2652 44bc 8b64 913d 91ed 4d3d d17a 8bbd
00000170: 0214 133c 9b82 6bbe 7939 a2bc 0adf b9bd
00000180: 7815 3e3d fab7 6abc 326a 853c 15e7 403d
00000190: 70b0 6f3d cd11 033e 5fb1 493e 604b f13d
000001a0: 0997 403d 0993 9dbd cffc acbd 6b5b 2d3b
000001b0: 9620 51be 55b3 98bd 599d c8bd 9ef6 5e3c
000001c0: 68d9 013e 0c3d 1f3d db4a 0d3e 8fc0 8bbe
000001d0: 8c66 7e3e 00ff e33c 09b9 9fbc 64aa 3bbe
000001e0: 5bd3 83bc 4122 debd 104a 9c3c 8dab 80be
000001f0: 786d 133d be82 aabc 0ef1 17bc da8a 46bd
00000200: 1c83 60bd 8e8e 32bd c602 ba3b 89f8 e9bd
00000210: dd48 023e 9b03 27bd fa5f 00bd 8a32 c0bd
00000220: 9569 1e3c 086a 95bd e325 4cbd 5bd4 1a3e
00000230: a1e8 90bc d493 5ebe 68a7 bdbc 0295 9b3d
00000240: 2e77 c1bd 69cf e5bd fd31 76be 8330 4e3d
00000250: bec2 b5ba 3d09 563d fa5f 453d 4513 51bb
00000260: 3b35 d9bc 714a 973b 71de f93c c907 423d
00000270: 9e3b 52be dec7 633d 74e0 553c e963 ca3d
00000280: 58d0 6b3d 5346 52bc 3c74 67bd e5a0 b3bd
00000290: 291b 8cba aec3 1fbd ba8b fcbc 9b45 c1bb
000002a0: fae4 64be 2c9a 4c3b 4213 583d c4fe 2ebd
000002b0: 1d5c 14be 738a 1dbe c3b6 fa3d 5c65 bcbc
000002c0: 44d8 eabc 38ba 1abe 67cf 83bd 4d19 52be
000002d0: 1249 473d 8e56 11be 3e5d 2a3e 286e bcbb
000002e0: caad 583d 4597 fbbd ba8e 17be b4ff fa3b
000002f0: 1a1a 0cbe 68da 07bd bffd 923c c9b6 813d
00000300: 1d44 0abc f99c a1bb d200 85bd 6577 a6bd
00000310: f694 31bd 8059 b9bd a77f a3be f08d 1cbe
00000320: 6314 023e db1f d03c f3f3 f5bc 8ffa fabd
00000330: 09e4 aa3d 3811 df3d 5edc 2fbe b9e4 cb3d
00000340: 4311 3fbd b67f d5bc 3fb5 943c 8d2e aabc
00000350: 4303 92bd be27 1ebb 9f23 94bd 61a5 b8bc
00000360: e0d3 e4bc bb3f 56ba be26 be3d 4984 a93d
00000370: 48a2 41bd ab7a ccbd 7856 bcbd 140a 3e3d
00000380: 97fe f13d 24a4 433c 128c 743b 7306 1abb
00000390: 88c3 e7bd 39b4 ff3c 7600 de3d e0a0 003e
000003a0: 343c cf3d 0d52 fbbb 7f89 48bc abc4 413e
000003b0: ca5f 263e d26b 9c3d d39c 22be 6e2e c93c
000003c0: bf1f 453e 1e10 023e ad15 0a3e c14d 99bd
000003d0: 28bd 263e 488e 293d 7b81 5aba a883 f0bd
000003e0: 3188 6bbc 58fa 0bbe 114e cbba a982 bdbd
000003f0: 290c 8b3c 27d2 34bd a6d4 1fbc c1f1 943a

net.4.bias f4 [64]
-0.04923832 -0.12357437 -0.03779198 0.057534073 0.010050653 -0.04270484 -0.2943827 0.020656306
-0.06116414 -0.16569877 -0.13476622 0.032416005 -0.081262454 -0.1730949 -0.08334503 -0.03230663
-0.09897284 0.10705488 -0.011181416 -0.052694716 -0.1600415 -0.021685228 -0.07595136 -0.09443523
0.0014534391 -0.057419177 -0.14305699 -0.09515549 -0.09032411 -0.23229133 0.11330267 -0.052060276
-0.220665 0.028075056 -0.10959656 -0.25998357 -0.08964893 0.013559762 -0.25726494 -0.0593641
-0.09416714 0.06307899 -0.0678063 -0.14591807 -0.22041467 -0.18033151 -0.115190476 0.0055781836
-0.034769226 0.0037977877 0.004830461 -0.0036019643 -0.114213616 -0.072096474 0.06994434 -0.1023332
-0.112458095 -0.13121064 -0.0251575 -0.018323999 -0.069595724 -0.025434168 -0.09342615 0.032200444
00000000: 1fae 49bd 8f14 fdbd c3cb 1abd d9a8 6b3d
00000010: 7eab 243c 45eb 2ebd 54b9 96be 6a37 a93c
00000020: 4087 7abd f0ac 29be 2800 0abe a5c6 043d
00000030: ee6c a6bd ca3f 31be cdb0 aabd f553 04bd
00000040: 46b2 cabd 973f db3d 4232 37bc 6ad6 57bd
00000050: ebe1 23be 38a5 b1bc 638c 9bbd 4267 c1bd
00000060: 5381 be3a 5f30 6bbd 887d 12be e2e0 c2bd
00000070: d9fb b8bd c7dd 6dbe 3b0b e83d 283d 55bd
00000080: 01f6 61be a9fd e53c 2974 e0bd 911c 85be
00000090: dc99 b7bd c429 5e3c 3bb8 83be c527 73bd
000000a0: b4da c0bd 8f2f 813d 08de 8abd 8c6b 15be
000000b0: 62b4 61be d3a8 38be fce8 ebbd 32c9 b63b
000000c0: 2d6a 0ebd 4ee4 783b d848 9e3b ef0e 6cbb
000000d0: d4e8 e9bd 51a7 93bd fa3e 8f3d 1294 d1bd
000000e0: 6e50 e6bd 155c 06be 1a17 cebc 361c 96bc
000000f0: 3488 8ebd 515b d0bc 3656 bfbd 9de4 033d

mean_layer.weight f4 [8, 64]
0.07114 0.13995805 -0.008119714 -0.048453297 -0.03915184 0.022536939 0.084216766 0.056944843
-0.06282704 0.040121935 0.08403381 -0.032280043 -0.10602691 -0.06524622 0.19867021 0.008685365
-0.00974728 -0.20231675 -0.038275085 -0.039557736 -0.024953209 0.13232474 -0.0127422 0.20303841
-0.00022154821 -0.101097554 0.14097446 0.029878259 -0.13019206 -0.021950766 0.12976979 0.027333507
0.016086154 -0.069179475 -0.31439298 0.070745945 0.2478689 0.12102526 0.09264371 0.030514635
-0.06478572 0.08044455 -0.17409158 0.023560729 -0.097866096 -0.0035354286 -0.07490701 0.078140095
-0.03090773 -0.012663276 -0.28150317 -0.010112014 0.15655352 0.06649179 0.025285674 0.024347851
0.001764053 0.07288234 0.12623115 0.21862988 -0.020525936 -0.02971277 -0.0066514304 0.19458479
0.08913939 -0.06993177 0.011158004 -0.06831484 -0.094441645 0.047992148 -0.038672186 -0.08129721
-0.05311925 -0.3296859 0.049735058 0.0006408271 0.053421263 -0.16518486 -0.12929139 -0.020838264
0.1667838 -0.10493333 0.2933018 0.12552106 -0.007531831 -0.18171428 -0.022028029 -0.09003811
0.03167916 -6.890013e-05 -0.17571732 -0.119291335 0.06773893 -0.12212549 0.26659384 -0.011092365
-0.13436975 0.01681693 -0.09788631 -0.071528025 -0.10775767 0.29088268 -0.06426247 0.042627912
-0.010749037 -0.028451279 -0.032208085 -0.03814551 -0.16032761 0.07074675 0.05497027 0.18249317
-0.013023923 0.12510262 0.07626351 -0.0058834935 -0.11651937 -0.025628027 -0.19039302 -0.040540665
-0.17878819 -0.005510152 -0.08928537 -0.018136583 0.10225587 0.103792176 -0.045923315 0.09039519
0.014158364 -0.05690803 0.006326183 -0.15602352 -0.0570688 -0.0058854516 0.11057689 0.010625603
0.08076941 -0.081687905 -0.014632545 0.23516577 0.11680316 0.035663918 0.13231567 -0.03511235
-0.058912683 -0.07388561 -0.026473245 0.11753832 0.085291006 -0.1410637 0.15616503 0.025665613
0.12767258 -0.025433809 0.37584955 0.016501307 -0.17492996 0.02216673 -0.015134975 -0.094807975
0.098437026 -0.037664764 -0.39228654 0.12823956 0.073356986 0.13784261 0.03764257 -0.03310206
-0.06873581 0.0016912345 -0.03816701 0.043639567 -0.13121228 0.021914918 0.019553095 0.14189343
0.045550555 -0.23924625 -0.1944521 0.013777146 0.05040981 0.13874745 -0.084413484 0.049545065
-0.023850214 -0.007985263 0.16123112 0.09796946 -0.030698486 0.04881235 -0.016701266 -0.08796802
0.083640814 -0.19618909 -0.030380249 -0.019301964 -0.04316023 -0.053745303 -0.13203947 0.17120196
0.040876817 -0.20648128 0.18550529 -0.096456654 -0.09847717 -0.16328855 0.20701732 0.00680626
0.29378465 0.12297255 -0.03648896 0.03902122 -0.16012415 0.017325658 -0.09487848 -0.2186002
0.0634552 -0.04391427 -0.055630278 -0.12993756 -0.020404587 -0.11450589 -0.1348994 -0.038782816
-0.09868002 0.09706422 -0.02239722 -0.13221303 0.023662454 0.027606905 -0.14285311 0.2128753
-0.0075162933 0.122711785 0.18692763 0.13011031 0.12657014 0.113678515 0.023591602 -0.114877075
-0.093028694 0.0608308 0.022699371 0.14913018 -0.0036163852 -0.114443034 -0.21544047 -0.16221006
-0.014026857 -0.08023641 0.104954585 0.23233221 -0.07500437 -0.119271114 -0.13973825 -0.037548646
00000000: d9b1 913d 2a51 0f3e 8d08 05bc f776 46bd
00000010: ae5d 20bd 639f b83c d779 ac3d ff3e 693d
00000020: 77ab 80bd e656 243d eb19 ac3d 1438 04bd
00000030: a324 d9bd cf9f 85bd 3470 4b3e 104d 0e3c
00000040: 0eb3 1fbc 1f2c 4fbe 56c6 1cbd 4b07 22bd
00000050: ac6a ccbc 2380 073e a9c4 50bc 4de9 4f3e
00000060: 654f 68b9 3c0c cfbd 9c5b 103e 40c3 f43c
00000070: 1151 05be 18d2 b3bc 5fe2 043e 85ea df3c
00000080: 1cc7 833c f8ad 8dbd 1ef8 a0be 40e3 903d
00000090: 58d1 7d3e 17dc f73d fcbb bd3d d4f9 f93c
000000a0: 60ae 84bd 1dc0 a43d 1045 32be 6e02 c13c
000000b0: 056e c8bd a6b2 67bb d968 99bd ea07 a03d
000000c0: 3532 fdbc a179 4fbc 2f21 90be dcac 25bc
000000d0: 914f 203e d92c 883d e723 cf3c 2575 c73c
000000e0: cc37 e73a 5643 953d bd42 013e 83e0 5f3e
000000f0: 0226 a8bc 3268 f3bc 3ef4 d9bb 3c41 473e
00000100: b68e b63d 6338 8fbd 10d0 363c a7e8 8bbd
00000110: 9f6a c1bd 6a93 443d ba66 1ebd 277f a6bd
00000120: 9293 59bd 97cc a8be fdb6 4b3d 2efd 273a
00000130: 41d0 5a3d 3826 29be f664 04be 02b5 aabc
00000140: 5fc9 2a3e 49e7 d6bd a72b 963e 9888 003e
00000150: 94cd f6bb 4f13 3abe 2074 b4bc e765 b8bd
00000160: 02c2 013d 7a7e 90b8 3eef 33be 044f f4bd
00000170: b5ba 8a3d ee1c fabd fd7e 883e c0bc 35bc
00000180: 3998 09be a9c3 893c 9e78 c8bd 497d 92bd
00000190: 0eb0 dcbd 93ee 943e 0b9c 83bd 9b9a 2e3d
000001a0: bb1c 30bc a812 e9bc a0ec 03bd 773e 1cbd
000001b0: ec2c 24be ace3 903d 8128 613d 7ddf 3a3e
000001c0: 4b62 55bc e71a 003e 0b30 9c3d 52ca c0bb
000001d0: b5a1 eebd def1 d1bc 63f6 42be f80d 26bd
000001e0: 4014 37be 818e b4bb 40db b6bd 2c93 94bc
000001f0: 876b d13d fe90 d43d 161a 3cbd 1d21 b93d
00000200: 7cf8 673c 6518 69bd df4b cf3b a1c4 1fbe
00000210: f9c0 69bd bfda c0bb 2376 e23d 0217 2e3c
00000220: 6f6a a53d fd4b a7bd 58bd 6fbc 4ccf 703e
00000230: 7f36 ef3d 5414 123d c27d 073e f8d1 0fbd
00000240: 6d4e 71bd 5751 97bd 6bde d8bc eeb7 f03d
00000250: 0dad ae3d 0173 10be bae9 1f3e b140 d23c
00000260: 9abc 023e 905a d0bc 5a6f c03e c02d 873c
00000270: d720 33be 0197 b53c b0f8 77bc af2a c2bd
00000280: 5a99 c93d 5e46 1abd c8d9 c8be 3b51 033e
00000290: 303c 963d 9d26 0d3e 182f 1a3d 0796 07bd
000002a0: 5cc5 8cbd 6aac dd3a 0355 1cbd 67bf 323d
000002b0: 835c 06be ea86 b33c d02d a03c 834c 113e
000002c0: 3893 3a3d f8fc 74be 741e 47be 8ab9 613c
000002d0: 847a 4e3d d013 0e3e fae0 acbd c4ef 4a3d
000002e0: 8661 c3bc 9fd4 02bc c519 253e 36a4 c83d
000002f0: 647b fbbc 75ef 473d 18d1 88bc 9428 b4bd
00000300: e04b ab3d cbe5 48be 00e0 f8bc 271f 9ebc
00000310: c8c8 30bd 0924 5cbd 5b35 07be 914f 2f3e
00000320: 736e 273d d46f 53be 19f5 3d3e 118b c5bd
00000330: 66ae c9bd 1d35 27be 59fc 533e 0c07 df3b
00000340: f16a 963e 08d9 fb3d 7375 15bd b7d4 1f3d
00000350: 96f7 23be 8aee 8d3c a64f c2bd bbd8 5fbe
00000360: cdf4 813d 73df 33bd 93dc 63bd 5a0e 05be
00000370: 8527 a7bc 1082 eabd 1123 0abe bbda 1ebd
00000380: c018 cabd 9bc9 c63d 607a b7bc da62 07be
00000390: c3d7 c13c e027 e23c 1648 12be fcfb 593e
000003a0: 3d4b f6bb 5150 fb3d f569 3f3e a33b 053e
000003b0: 9a9b 013e 48d0 e83d 2d43 c13c ac44 ebbd
000003c0: d485 bebd b829 793d 08f4 b93c 95b5 183e
000003d0: e000 6dbb 1c61 eabd 6d9c 5cbe 651a 26be
000003e0: e7d0 65bc fd52 a4bd 6ef2 d63d 7fe8 6d3e
000003f0: e49b 99bd 6a44 f4bd 8b17 0fbe 9ccc 19bd

mean_layer.bias f4 [8]
-0.045157928 0.027202021 -0.12548742 0.0055239047 0.0027757343 -0.028200334 -0.12621312 -0.18436863
00000000: 85f7 38bd c6d6 de3c c67f 00be df01 b53b
00000010: 18e9 353b 6304 e7bc 033e 01be 21cb 3cbe

value_layer.weight f4 [1, 64]
0.027718795 0.009058285 -0.002612407 -0.00566315 -0.009244638 0.26215863 0.12934965 -0.021700932
-0.11231756 -0.0012933362 -0.0290049 0.003037323 -0.0019582242 -0.06275053 -0.0055989227 0.0034281723
-0.052068617 0.00091608614 0.04519233 0.009338012 0.015345322 -0.03183604 0.0016410246 -0.031994067
0.00506487 -0.0291394 -0.022315241 -0.03633677 -0.0063124658 -0.034193557 -0.0004247241 -0.015737846
-0.018424487 0.029927313 0.031062089 -0.085730344 0.007866149 -0.045426283 -0.110592745 0.0027934301
-0.015558147 -0.0062285583 -0.026594682 0.013135914 -0.077166975 -0.0029544844 -0.0041885558 0.029202426
0.007975714 0.009691999 0.0041126604 -0.0019005002 0.004246314 -0.004444549 0.026940815 -0.011438404
-0.062132172 -0.02043385 0.009571462 0.009065321 0.013573273 -0.07128334 -0.0029719262 -0.018293185
00000000: 8712 e33c 3369 143c eb34 2bbb f291 b9bb
00000010: d276 17bc a839 863e 3c74 043e 27c6 b1bc
00000020: c006 e6bd 2985 a9ba af9b edbc d30d 473b
00000030: 8d55 00bb 5a83 80bd 2b77 b7bb 30ab 603b
00000040: e745 55bd 8025 703a 981b 393d 76fe 183c
00000050: f26a 7b3c 8266 02bd a617 d73a 360c 03bd
00000060: 36f7 a53b c0b5 eebc 74ce b6bc ddd5 14bd
00000070: cdd8 cebb 8b0e 0cbd 81ad deb9 a8ec 80bc
00000080: f3ee 96bc 202a f53c ec75 fe3c 6493 afbd
00000090: 05e1 003c e910 3abd 737e e2bd fb11 373b
000000a0: 99e7 7ebc ef18 ccbb 17dd d9bc 0438 573c
000000b0: b809 9ebd 06a0 41bb 2740 89bb ed39 ef3c
000000c0: 92ac 023c 31cb 1e3c 7fc3 863b 341a f9ba
000000d0: aa24 8b3b 94a3 91bb fcb2 dc3c 2568 3bbc
000000e0: 4e7e 7ebd e464 a7bc 9fd1 1c3c b686 143c
000000f0: 6f62 5e3c 00fd 91bd a6c4 42bb 97db 95bc

log_std_parameter f4 [8]
-2.3362446 -1.9604615 -2.3131106 -2.156481 -2.1800492 -2.5468483 -2.0650017 -1.4468967
00000000: 0885 15c0 67f0 fabf 010a 14c0 c903 0ac0
00000010: ed85 0bc0 90ff 22c0 fd28 04c0 e933 b9bf

net.0.weight f4 [256, 36]
-0.08116319 -0.09040587 -0.028709386 0.564355 0.0045943875 0.09422734 -0.0014935206 0.17510942
0.16558468 -0.09603149 0.17470343 -0.029604217 0.13632451 0.03979546 0.11046969 -0.057972066
-0.027452447 -0.068981394 -0.3485668 0.32621026 -0.17103069 -0.047331728 -0.10615337 0.12956527
-0.0053986446 -0.07683506 -0.047062457 -0.10021208 0.023728406 -0.12741011 0.10321741 -0.14417286
0.13198039 -0.091106266 -0.009211628 0.058019627 0.14098589 0.16348992 0.13127117 -0.46539268
-0.0028842145 -0.25170702 0.03824537 -0.04271093 -0.07252995 -0.018821763 0.032520752 0.021375554
0.08342612 -0.04984138 0.009980249 0.024896968 -0.056609884 0.012186726 -0.1645156 0.6023255
-0.20184597 -0.071315475 0.10850194 -0.041440703 -0.38220233 -0.1137567 0.051392 -0.05739705
0.0426404 -0.003959927 0.1402615 -0.008582312 -0.016214302 -0.0036526478 0.02800495 0.07260866
0.03809761 -0.09742258 -0.24733037 0.01801809 -0.13459027 0.037600424 -0.07226344 -0.054761726
-0.21926618 -0.129299 0.03483789 -0.00244301 0.07970239 -0.05288346 0.049566384 -0.044093497
-0.0019673023 -0.050005257 -0.28222334 -0.04965309 -0.069062516 0.3501087 0.019602997 -0.22219767
0.09722079 -0.05623875 -0.059086066 -0.16126578 -0.09730787 0.05339741 0.1136795 -0.04233281
-0.0025360656 -0.059898525 -0.0040259627 0.068812706 -0.23792802 -0.102526836 0.26283583 0.22950467
-0.012292112 -0.20363909 -0.1817097 -0.32096693 -0.22110753 -0.074158825 -0.28257358 -0.18398929
-0.031260528 -0.0002522604 0.078074224 -0.12494911 -0.004189604 0.107094295 -0.1298115 -0.058823947
0.23964988 0.14901106 0.21214792 -0.22646457 -0.14783654 0.115339205 -0.04585747 -0.06388768
0.06703446 -0.07339081 0.110989414 0.019942693 0.08332389 0.07273398 -0.06890797 -0.15680574
-0.124294214 -0.27566257 0.00904897 0.44525272 0.02148141 -0.15471078 0.018729111 -0.32884976
-0.23499434 -0.2450723 -0.017268024 -0.1228643 -0.02620991 0.021712799 0.0816821 -0.055130385
0.064906724 0.016928744 -0.09386005 -0.015113317 -0.047955144 0.01958446 0.20230438 -0.0946512
-0.039088555 -0.09221274 -0.08435649 -0.007959287 0.14923325 -0.019784555 0.054644942 -0.047461953
-0.14350781 0.013917894 0.01622456 -0.19575332 -0.09658431 -0.06845036 -0.031659227 -0.22773023
0.12985852 0.10379111 0.025564268 0.11931983 0.0600038 0.06172015 0.06813205 0.008052651
0.122438416 0.06933315 0.0699907 -0.0127999475 -0.054362003 -0.00481576 0.2795552 0.3941257
0.028411053 -0.3691967 0.16828108 0.18575065 0.23522165 -0.1004843 -0.10196751 -0.14929448
0.0017621864 0.08284798 0.080911525 0.01160093 -0.10441085 -0.17169574 0.016801583 0.11393666
0.047849678 -0.23878586 0.011528756 -0.18761125 -0.068325914 -0.01952867 -0.070248745 -0.09296534
-0.21686247 0.20543912 0.10616908 0.17943606 -0.27687365 -0.20002836 -0.0048617627 0.14453678
0.062123142 0.09023523 0.15583163 0.4376023 -0.2570121 -0.00590506 -0.38723922 0.07956229
0.0037218414 -0.081828 -0.033542097 -0.095917545 0.020013712 0.027525991 -0.032070935 0.034512404
0.026888149 -0.030496946 -0.003206658 -0.13079578 -0.25903183 -0.073694035 -0.25857025 -0.49935284
00000000: e338 a6bd b626 b9bd f22f ebbc 9279 103f
00000010: 848c 963b 43fa c03d 3cc2 c3ba e24f 333e
00000020: 088f 293e 28ac c4bd 75e5 323e 8b84 f2bc
00000030: a798 0b3e 9000 233d ef3d e23d 1e74 6dbd
00000040: f4e3 e0bc 1e46 8dbd 5977 b2be 0805 a73e
00000050: ab22 2fbe eade 41bd f066 d9bd c2ac 043e
00000060: 1de7 b0bb b35b 9dbd 90c4 40bd fe3b cdbd
00000070: 1362 c23c cc77 02be a663 d33d 0da2 13be
00000080: de25 073e ec95 babd 5eec 16bc fda5 6d3d
00000090: 9b5e 103e e769 273e f36b 063e f347 eebe
000000a0: 1705 3dbb bedf 80be 2da7 1c3d a8f1 2ebd
000000b0: 958a 94bd 1930 9abc 7b34 053d c91b af3c
000000c0: 50db aa3d 7a26 4cbd 3384 233c baf4 cb3c
000000d0: c4df 67bd d5aa 473c c776 28be 0132 1a3f
000000e0: b6b0 4ebe d90d 92bd 4436 de3d babd 29bd
000000f0: 06b0 c3be 46f9 e8bd 6b80 523d 2b19 6bbd
00000100: b3a7 2e3d 46c2 81bb b6a0 0f3e d39c 0cbc
00000110: dbd3 84bc 4361 6fbb a36a e53c d9b3 943d
00000120: 3d0c 1c3d 7d85 c7bd 2c44 7dbe ac9a 933c
00000130: 08d2 09be e702 1a3d dbfe 93bd d54d 60bd
00000140: 5087 60be f566 04be 2db2 0e3d e81a 20bb
00000150: 023b a33d 549c 58bd 1f06 4b3d 629b 34bd
00000160: dbed 00bb 50d2 4cbd 947f 90be 0a61 4bbd
00000170: a670 8dbd 7341 b33e 7796 a03c c987 63be
00000180: b21b c73d 9b5a 66bd 3b04 72bd db22 25be
00000190: 5949 c7bd 3eb7 5a3d ccd0 e83d 2b65 2dbd
000001a0: 1f34 26bb 2858 75bd 39ec 83bb aded 8c3d
000001b0: 67a3 73be 97f9 d1bd 6b92 863e 4603 6b3e
000001c0: db64 49bc c486 50be 1c12 3abe c755 a4be
000001d0: 036a 62be 95e0 97bd 7cad 90be b067 3cbe
000001e0: 0a0b 00bd d141 84b9 61e5 9f3d 52e5 ffbd
000001f0: f248 89bb 4154 db3d 4eed 04be 61f1 70bd
00000200: c766 753e 5b96 183e 4e3d 593e 54e6 67be
00000210: 7662 17be f636 ec3d 0bd5 3bbd 8bd7 82bd
00000220: 5d49 893d ec4d 96bd 6b4e e33d dc5e a33c
00000230: b7a5 aa3d 8ef5 943d 9f1f 8dbd af91 20be
00000240: f78d febd a523 8dbe 2242 143c 2af8 e33e
00000250: c8f9 af3c 816c 1ebe cb6d 993c ff5e a8be
00000260: 5ba2 70be 3cf4 7abe ac75 8dbc 47a0 fbbd
00000270: 2ab6 d6bc 0adf b13c f248 a73d 66d0 61bd
00000280: d1ed 843d 26ae 8a3c b339 c0bd d99d 77bc
00000290: 9d6c 44bd 976f a03c e128 4f3e 7dd8 c1bd
000002a0: 521b 20bd 08da bcbd 18c3 acbd ab67 02bc
000002b0: 9ad0 183e 3813 a2bc 60d3 5f3d 7767 42bd
000002c0: b6f3 12be e107 643c 5ee9 843c 8f73 48be
000002d0: ffcd c5bd b42f 8cbd 1bad 01bd 1d32 69be
000002e0: a2f9 043e 6f90 d43d 286c d13c f45d f43d
000002f0: 8bc6 753d 45ce 7c3d d188 8b3d 44ef 033c
00000300: fec0 fa3d 8afe 8d3d 4957 8f3d dfb6 51bc
00000310: b1aa 5ebd 86cd 9dbb dc21 8f3e d8ca c93e
00000320: 4cbe e83c 5a07 bdbe e051 2c3e 6b35 3e3e
00000330: f2dd 703e b6ca cdbd 58d4 d0bd a7e0 18be
00000340: 2af9 e63a 34ac a93d f1b4 a53d d411 3e3c
00000350: 5bd5 d5bd 02d1 2fbe 79a3 893c a057 e93d
00000360: 06fe 433d 4884 74be 1be3 3c3c 2a1d 40be
00000370: 75ee 8bbd 97fa 9fbc 93de 8fbd 9d64 bebd
00000380: 3211 5ebe a25e 523e 2d6f d93d 16be 373e
00000390: 62c2 8dbe 3cd4 4cbe 6c4f 9fbb 7301 143e
000003a0: d674 7e3d 40cd b83d 5492 1f3e 690d e03e
000003b0: 1797 83be 3c7f c1bb 3844 c6be 8ef1 a23d
000003c0: 23ea 733b 7095 a7bd 7063 09bd 6b70 c4bd
000003d0: ccf3 a33c 307e e13c d05c 03bd e15c 0d3d
000003e0: 8944 dc3c bbd4 f9bc cb26 52bb 54ef 05be
000003f0: d29f 84be e6ec 96bd 5263 84be 2dab ffbe
